ModelThuNghiem/Model10/model.tflite (tflite, 38280 bytes, 7 tensors)

sequential/conv1d/BiasAdd/ReadVariableOp f4 [64]
-0.0033526896 -0.051042028 0.06088575 0.06392099 -0.110606514 -0.05215514 -0.06525672 -0.014143451
-0.006375135 -0.05225649 -0.041362744 -0.004791704 -0.04985188 -0.014947409 -0.076358296 -0.16367422
0.013846952 -0.06531837 -0.08323279 -0.033145253 0.07867115 0.02878533 0.050633147 -0.016811611
-0.122157715 -0.08820815 -0.01284522 -0.05252686 -0.013880904 -0.0040484318 0.060950864 -0.13665345
-0.13350923 -0.057621457 0.16150227 0.00091819343 0.04786635 0.0410512 -0.14857572 -0.1275613
-0.10302208 0.002876878 -0.059444603 -0.054082938 -0.10088218 0.07692937 -0.050799724 0.107215464
-0.02452515 -0.034223754 0.023468265 0.113619946 -0.15165153 0.24630097 0.030294579 -0.050099935
-0.027701769 -0.123828076 -0.10571827 -0.06381527 0.052318685 -0.12919119 -0.061841793 0.10221735
00000000: ccb8 5bbb 7211 51bd 5663 793d 02e9 823d
00000010: ab85 e2bd a1a0 55bd 51a5 85bd efb9 67bc
00000020: 82e6 d0bb e70a 56bd fb6b 29bd ba03 9dbb
00000030: 7c31 4cbd fae5 74bc bd61 9cbd 379a 27be
00000040: 53de 623c a3c5 85bd f475 aabd 51c3 07bd
00000050: 571e a13d 36cf eb3c b464 4f3d 81b8 89bc
00000060: d32d fabd 79a6 b4bd c274 52bc 6826 57bd
00000070: bb6c 63bc b5a8 84bb 9da7 793d e2ee 0bbe
00000080: a5b6 08be 7a04 6cbd da60 253e ebb2 703a
00000090: 810f 443d 4e25 283d 3c24 18be 6e9f 02be
000000a0: 3efd d2bd 018a 3c3b 2f7c 73bd 1286 5dbd
000000b0: 519b cebd 258d 9d3d 5f13 50bd c893 db3d
000000c0: f8e8 c8bc 352e 0cbd 8540 c03c 93b1 e83d
000000d0: 8a4a 1bbe 5236 7c3e 562c f83c 9735 4dbd
000000e0: d2ee e2bc 9399 fdbd d282 d8bd 95b1 82bd
000000f0: 1e4c 563d b24a 04be d24d 7dbd 5457 d13d

sequential/conv1d_1/BiasAdd/ReadVariableOp f4 [40]
-0.09371614 -0.05619013 0.0259879 -0.047044624 0.006141409 0.1401916 0.0039918604 -0.06381639
-0.079434134 -0.10177506 0.13495946 0.010126542 -0.118049756 -0.04693484 0.0018331762 -0.09421937
-0.09597845 -0.15176131 -0.070467055 0.18940593 -0.037735257 -0.07792027 -0.027545052 -0.0042837635
-0.075103335 0.0439772 -0.053100135 -0.09197338 0.038718965 0.13423868 -0.08181409 -0.11263427
0.23660445 0.068187594 -0.056155287 -0.039596274 -0.07577333 0.17241758 0.0051001627 -0.11123851
00000000: 3fee bfbd 9f27 66bd 94e4 d43c ddb1 40bd
00000010: df3d c93b 638e 0f3e 27ce 823b 2bb2 82bd
00000020: 5dae a2bd 716f d0bd d032 0a3e cce9 253c
00000030: 12c4 f1bd bf3e 40bd 3047 f03a 16f6 c0bd
00000040: 5990 c4bd 5167 1bbe 0851 90bd a1f3 413e
00000050: 4990 1abd aa94 9fbd 29a6 e1bc d05e 8cbb
00000060: c7cf 99bd 7021 343d 877f 59bd 8a5c bcbd
00000070: c797 1e3d dd75 093e 258e a7bd ccac e6bd
00000080: 7048 723e f0a5 8b3d 1603 66bd b42f 22bd
00000090: 0c2f 9bbd 3c8e 303e 441f a73b 04d1 e3bd

sequential/batch_normalization/batchnorm/mul_1;sequential/batch_normalization/batchnorm/add_1;sequential/dense_1/MatMul;sequential/dense_1/BiasAdd f4 [1, 40]
-0.20465437 17.586958 -0.078878365 6.562606e-10 -0.22914162 -11.84086 -0.04788302 -1.0816057e-06
-0.10208121 30.57921 -2.72428 2.1116834e-16 -0.094791025 -0.090922594 -12.954412 -10.518673
28.970005 4.2085886 15.927769 -2.821354 32.73229 -0.09678614 0.025510874 35.9139
26.624004 -0.08046061 3.8853676 -11.371363 2.2522433 0.079445064 0.07440306 0.038487304
3.7757797 3.7169611 0.056624424 0.070081666 0.055217102 27.239326 0.07042592 3.9108355
00000000: ea90 51be 17b2 8c41 fb8a a1bd 3c64 3430
00000010: 1aa4 6abe 2a74 3dc1 fc20 44bd b02b 91b5
00000020: f40f d1bd 39a2 f441 9b5a 2ec0 e575 7325
00000030: cc21 c2bd a035 babd 4645 4fc1 7c4c 28c1
00000040: 92c2 e741 c2ac 8640 24d8 7e41 1091 34c0
00000050: dded 0242 d037 c6bd 2efc d03c d5a7 0f42
00000060: f6fd d441 88c8 a4bd dda9 7840 1af1 35c1
00000070: c124 1040 18b4 a23d a260 983d dda4 1d3d
00000080: 60a6 7140 b1e2 6d40 03ef 673d fa86 8f3d
00000090: 542b 623d 24ea d941 773b 903d 214b 7a40

sequential/conv1d/Conv1D f4 [64, 1, 2, 12]
0.088282816 -0.25337535 0.11257513 -0.124110736 0.23693198 -0.10550319 -0.015814671 0.22871502
0.086358845 0.1893785 0.069977716 0.20442092 0.09366453 -0.23056297 -0.018311352 -0.03316616
0.089815214 0.03690511 -0.10108992 -0.04953714 -0.3584644 0.09541502 -0.19358097 -0.1498678
-0.117436826 0.07972076 0.19401866 0.087741435 -0.10332478 -0.107957855 0.10266881 0.058106855
-0.111759365 0.15736468 0.06496378 -0.21819401 0.011860872 0.11915722 -0.12685347 -0.14581941
-0.073854774 0.25920084 -0.09464743 -0.020071734 0.15898359 0.15795425 0.17579764 0.19871023
-0.0009450937 0.16293894 -0.09912372 -0.12198256 -0.018673396 0.19935966 -0.19527245 -0.09602636
0.01686361 0.117579915 0.2581786 -0.078571066 -0.0049653766 0.0316915 -0.06446233 -0.142651
0.1522627 0.0021255368 -0.11686658 0.07527413 0.1210374 -0.12080144 -0.074424036 -0.06580633
-0.094115816 0.25974676 0.11922261 -0.18661025 -0.286196 -0.09882589 -0.109568544 0.06839899
0.17132263 -0.102342136 0.19617161 -0.28006497 -0.2949816 0.24444309 -0.11299343 0.09359927
-0.18615592 0.022151617 0.11170353 -0.11298619 0.017436739 -0.34454638 -0.13070408 0.08204417
0.08280478 0.14730446 -0.0011746937 0.09850676 0.04014917 0.06890225 0.19766544 -0.017057916
0.12396471 0.15904847 -0.09665282 -0.13931783 0.14101973 -0.014305476 -0.049029075 0.20714417
0.1483519 -0.093844876 -0.02111239 -0.27309784 0.1381424 -0.28135946 0.08376119 0.04602125
0.0128267985 -0.077219814 0.15016258 0.00078066357 0.07946045 -0.028610578 -0.06888203 0.16634326
-0.09425191 0.184991 -0.090881445 -0.008424313 -0.035722505 -0.09384757 0.009868796 -0.07463002
0.044998 0.08472307 -0.012335502 0.029704722 -0.20959288 0.14614251 -0.0671935 0.23337328
-0.07744962 -0.32042778 0.13087484 0.13640499 -0.069391824 -0.29656115 0.040042575 -0.04887179
-0.03130174 -0.07439902 0.04983924 -0.10944053 0.052716143 -0.23326878 0.13600531 0.06468697
0.080314 -0.08676075 0.054564573 0.054121725 0.061282042 0.048247106 0.1391746 -0.14725024
-0.11129082 -0.14085852 -0.15763144 0.04477692 -0.113071874 -0.060859296 0.19891897 0.14360237
0.15923735 -0.20698312 -0.1318396 0.15069805 0.04613091 0.19692111 -0.064704366 -0.085019365
0.10030987 0.054552723 0.14249949 0.12772247 0.102271415 0.10531177 0.1235285 -0.0022391523
-0.20268616 0.06667364 0.1437232 0.11871784 -0.033901945 -0.050385132 0.17539153 -0.016499626
0.028042737 -0.102575794 -0.15461063 -0.21647088 -0.16659342 0.061877817 0.07777762 -0.19864807
-0.15948465 0.11496296 0.033945777 0.119264565 0.1779991 0.22262293 0.027479319 -0.09759512
-0.1786122 0.17217593 0.057392754 -0.12348623 -0.091725156 0.022625387 0.11200326 -0.14283662
-0.11994653 -0.014129901 -0.06820652 -0.026247961 0.18151559 0.27287853 0.074331336 0.009767081
0.11371817 -0.21656679 -0.2352039 0.049075957 0.13701849 -0.114960924 -0.0766031 -0.05746368
0.22043149 -0.16489816 0.16283573 -0.024122301 -0.16824667 -0.122030266 0.06144253 0.16397007
-0.2627359 -0.26049602 -0.17037457 0.13270634 0.14237507 -0.06729274 -0.04014958 0.012827647
00000000: 9fcd b43d 6aba 81be ca8d e63d c52d febd
00000010: 4c9e 723e 0e12 d8bd c58d 81bc 4534 6a3e
00000020: e8dc b03d 70ec 413e 7a50 8f3d b853 513e
00000030: 30d3 bf3d b318 6cbe b001 96bc 3dd9 07bd
00000040: 0af1 b73d d029 173d 3b08 cfbd 75e7 4abd
00000050: a588 b7be f368 c33d 173a 46be f276 19be
00000060: b882 f0bd a344 a33d d4ac 463e c8b1 b33d
00000070: f19b d3bd 0219 ddbd 0644 d23d 7401 6e3d
00000080: 18e2 e4bd 3524 213e bb0b 853d 406e 5fbe
00000090: 1a54 423c b308 f43d e0e5 01be af51 15be
000000a0: 2c41 97bd f9b5 843e 83d6 c1bd 7a6d a4bc
000000b0: 98cc 223e c2be 213e 4c04 343e b27a 4b3e
000000c0: 2ac0 77ba 77d9 263e 6001 cbbd fed1 f9bd
000000d0: f3f8 98bc f024 4c3e 80f5 47be 78a9 c4bd
000000e0: 8e25 8a3c bdcd f03d fc2f 843e dee9 a0bd
000000f0: 99b4 a2bb f2ce 013d d304 84bd 1b13 12be
00000100: c1ea 1b3e 974c 0b3b bf57 efbd 5329 9a3d
00000110: 75e2 f73d bf66 f7bd a16b 98bd 78c5 86bd
00000120: cbbf c0bd 87fd 843e fc2a f43d c216 3fbe
00000130: 4888 92be 3a65 cabd 7965 e0bd c514 8c3d
00000140: 336f 2f3e c198 d1bd 36e1 483e ad64 8fbe
00000150: d407 97be 4a4f 7a3e 1969 e7bd f9b0 bf3d
00000160: a89f 3ebe 4f77 b53c d2c4 e43d 4e65 e7bd
00000170: 7ed7 8e3c 6268 b0be 4ad7 05be c606 a83d
00000180: 8d95 a93d fbd6 163e 2ef8 99ba eabd c93d
00000190: 7573 243d 9f1c 8d3d cf68 4a3e 0bbd 8bbc
000001a0: 36e1 fd3d 9add 223e eaf1 c5bd 55a9 0ebe
000001b0: 7a67 103e 8461 6abc b6d2 48bd 9a1d 543e
000001c0: 8fe9 173e be31 c0bd e4f3 acbc 7bd3 8bbe
000001d0: 3475 0d3e 590e 90be fd8a ab3d c780 3c3d
000001e0: 7e27 523c 6c25 9ebd 38c4 193e 72a5 4c3a
000001f0: 29bc a23d bb60 eabc 0612 8dbd e355 2a3e
00000200: 2507 c1bd 486e 3d3e 0d20 babd 2106 0abc
00000210: c351 12bd 2833 c0bd bbb0 213c a0d7 98bd
00000220: d34f 383d 4a83 ad3d d81a 4abc 5157 f33c
00000230: 849f 56be 62a6 153e bf9c 89bd 68f9 6e3e
00000240: e89d 9ebd 1c0f a4be 0e04 063e c0ad 0b3e
00000250: 4d1d 8ebd ddd6 97be af03 243d c92d 48bd
00000260: 4136 00bd 835e 98bd 3b24 4c3d 5b22 e0bd
00000270: e2ec 573d 03de 6ebe fa44 0b3e 9a7a 843d
00000280: ab7b a43d 9faf b1bd 1a7f 5f3d beae 5d3d
00000290: e102 7b3d c29e 453d c983 0e3e c4c8 16be
000002a0: 71ec e3bd 373d 10be 236a 21be 0168 373d
000002b0: 3a92 e7bd 9947 79bd 6ab1 4b3e 800c 133e
000002c0: 1e0f 233e 62f3 53be f600 07be 9750 1a3e
000002d0: c4f3 3c3d b0a5 493e b983 84bd a21e aebd
000002e0: 436f cd3d ad72 5f3d 63eb 113e aec9 023e
000002f0: ad73 d13d b3ad d73d 83fc fc3d bebe 12bb
00000300: f68c 4fbe 308c 883d 2d2c 133e 5722 f33d
00000310: c4dc 0abd a460 4ebd d699 333e 392a 87bc
00000320: e2b9 e53c 4213 d2bd 4052 1ebe 8baa 5dbe
00000330: 7797 2abe 9873 7d3d df49 9f3d 666a 4bbe
00000340: f24f 23be b371 eb3d ba0a 0b3d fb40 f43d
00000350: 6545 363e 44f7 633e 4f1c e13c f3df c7bd
00000360: 1ee6 36be e34e 303e aa14 6b3d 59e6 fcbd
00000370: 66da bbbd e058 b93c f761 e53d c343 12be
00000380: 87a6 f5bd 1a81 67bc dcaf 8bbd f705 d7bc
00000390: 39df 393e bcb6 8b3e 073b 983d 1b06 203c
000003a0: 12e5 e83d afc3 5dbe 4bd9 70be df03 493d
000003b0: 934e 0c3e a270 ebbd 16e2 9cbd 095f 6bbd
000003c0: cbb8 613e 10db 28be 69be 263e 229c c5bc
000003d0: db48 2cbe 01eb f9bd 2aab 7b3d c5e7 273e
000003e0: 5285 86be bc5f 85be ac76 2ebe 2ce4 073e
000003f0: c5ca 113e c7d0 89bd e373 24bd 0d2b 523c

sequential/conv1d_1/Conv1D f4 [40, 1, 2, 64]
-0.00094476104 -0.09835025 0.016727995 -0.13534537 -0.10831875 0.11667797 0.057056 -0.087080784
0.071018815 -0.11690719 0.05710635 0.0135881035 -0.10027656 0.17323749 0.21124801 0.008655007
0.1537851 -0.07789706 0.18925136 0.1982203 0.027742129 0.051629145 0.10901557 0.010836989
0.18352513 -0.013683055 0.10623569 -0.21223344 0.011229263 0.03519412 0.040539622 0.1325892
0.09192406 -0.07645092 -0.10569855 0.0775468 0.21432006 0.114390016 0.103770494 0.237896
-0.1533562 0.05689152 0.18384892 -0.17170298 -0.056707963 0.06003788 0.2648833 -0.1712949
-0.17367776 -0.059931055 0.036554772 0.03246764 -0.09336194 -0.031188564 0.049946003 0.22877015
0.11038814 0.0014536708 0.025176983 0.07254587 -0.019799503 0.14423552 0.2585212 -0.0051350296
0.062540665 -0.11008754 0.020704165 -0.1037752 0.090096086 -0.077878274 -0.17112106 -0.094917186
0.1409584 -0.32633638 0.032653715 0.041129064 -0.083505265 0.008215173 -0.15715903 -0.05409043
-0.09703255 -0.026470937 0.17067689 0.04260704 -0.23508479 -0.31113866 -0.1860888 -0.1066818
0.1767029 0.1293203 0.11504834 -0.22522497 0.018516617 -0.13009186 -0.10637737 -0.1506431
0.18045104 -0.1139508 -0.13052127 0.1433006 -0.090615116 -0.16310714 0.027542824 -0.056252863
0.06577777 -0.13101128 0.17108597 -0.25459558 0.025855223 -0.026908446 0.008388993 -0.19069488
-0.14441769 -0.15922159 -0.15141279 -0.18758577 0.089289755 -0.10825329 -0.16660082 -0.04916905
-0.028468857 0.15996458 0.107241526 -0.0077232164 -0.22224766 0.13534886 -0.008244385 -0.06513394
0.03352297 -0.1631206 -0.1680676 -0.12546277 0.06467497 -0.080014005 -0.021875883 0.09918745
0.040939573 -0.0040223836 0.05168848 -0.23364675 -0.020199895 0.004435221 -0.084045954 0.04096266
-0.16278642 -0.020904759 -0.15904175 -0.21158126 -0.08837024 0.10324575 0.104706556 -0.02186016
0.11572026 0.1255615 -0.07353973 -0.16950992 -0.065733224 -0.12886696 -0.023843292 -0.15534966
-0.02153189 0.062402323 0.11675484 0.10782581 0.070111096 -0.040520895 -0.22830966 0.14155541
-0.124653205 -0.07968922 0.03545318 -0.064664975 -0.037602518 -0.08055689 -0.04358723 0.104061514
0.12716918 0.14247759 -0.15158938 0.105806984 0.013771906 -0.020659512 -0.08214674 -0.19836532
-0.061055668 0.081125416 -0.13733515 -0.107911065 -0.15843283 0.17085372 -0.12224214 -0.14969932
0.033705156 0.041467424 -0.108472124 0.0066777226 -0.18166357 -0.14148909 -0.088457584 0.022846064
0.05353734 -0.22327998 -0.024928855 0.027131392 -0.075347975 0.046447936 -0.09567902 0.0069751074
-0.021187833 -0.06467388 0.108843446 0.13515133 -0.0943992 -0.10912041 -0.13927343 0.10226434
-0.0057076425 0.063044034 -0.060968906 0.10369036 -0.14591072 0.08678521 -0.15095982 0.07892455
-0.0137148 0.05331813 -0.07471836 -0.0285168 0.04854426 -0.18694966 0.09933874 0.14593866
0.030224025 0.14599341 -0.15790816 -0.10345056 0.16277008 -0.15246503 -0.1051736 -0.084180206
-0.20215125 -0.0155207375 0.09565942 0.1153806 -0.14705421 0.022165246 0.14858271 0.046697132
-0.028734727 0.079788275 -0.018662816 -0.15969796 0.12241362 0.0193238 -0.012013897 0.013747207
00000000: d7a9 77ba db6b c9bd 2609 893c fa97 0abe
00000010: 39d6 ddbd dcf4 ee3d 8db3 693d 6957 b2bd
00000020: 5072 913d 096d efbd 59e8 693d a3a0 5e3c
00000030: cc5d cdbd 2b65 313e 6651 583e bbcd 0d3c
00000040: d779 1d3e 7e88 9fbd 1ccb 413e 43fa 4a3e
00000050: 7643 e33c 1579 533d 8e43 df3d a08d 313c
00000060: 03ee 3b3e e42e 60bc 1992 d93d b953 59be
00000070: f1fa 373c b627 103d e00c 263d 77c5 073e
00000080: ae42 bc3d 4d92 9cbd 7b78 d8bd dbd0 9e3d
00000090: b876 5b3e 5045 ea3d a085 d43d 029b 733e
000000a0: 6809 1dbe 1507 693d e442 3c3e e8d2 2fbe
000000b0: 9c46 68bd 48ea 753d c99e 873e ee67 2fbe
000000c0: 95d8 31be 447a 75bd 75ba 153d cafc 043d
000000d0: 8b34 bfbd 297f ffbc 2e94 4c3d b942 6a3e
000000e0: 2d13 e23d 1989 be3a f63f ce3c ee92 943d
000000f0: 9132 a2bc 7ab2 133e e45c 843e c043 a8bb
00000100: 5215 803d 9375 e1bd c89b a93c 1888 d4bd
00000110: 4c84 b83d a57e 9fbd 5c3a 2fbe f163 c2bd
00000120: 6657 103e 9015 a7be e7bf 053d f376 283d
00000130: cf04 abbd ef98 063c 4cee 20be ed8d 5dbd
00000140: 00b9 c6bd 94d9 d8bc ecc5 2e3e b884 2e3d
00000150: 11ba 70be 914d 9fbe 108e 3ebe fd7b dabd
00000160: 9bf1 343e 8a6c 043e 779e eb3d 60a1 66be
00000170: 29b0 973c cd36 05be 61dc d9bd 2f42 1abe
00000180: 28c8 383e 095f e9bd 5ea7 05be 64bd 123e
00000190: 6b94 b9bd 8f05 27be 7da1 e13c 6769 66bd
000001a0: 7fb6 863d d227 06be 2931 2f3e 5a5a 82be
000001b0: 55ce d33c 1a6f dcbc fd71 093c 8545 43be
000001c0: 3be2 13be fc0a 23be f40b 1bbe 7c16 40be
000001d0: 8cdd b63d e7b3 ddbd 6899 2abe 7c65 49bd
000001e0: 8537 e9bc c1cd 233e 72a1 db3d 0913 fdbb
000001f0: e494 63be e498 0a3e 7513 07bc f164 85bd
00000200: 624f 093d 1609 27be ea19 2cbe 5079 00be
00000210: 5074 843d 62de a3bd 0d35 b3bc ca22 cb3d
00000220: 41b0 273d 33ce 83bb 4db7 533d 1841 6fbe
00000230: 407a a5bc 5555 913b 4920 acbd 76c8 273d
00000240: 7cb1 26be 7540 abbc d7db 22be c2a8 58be
00000250: 75fb b4bd 8272 d33d 6470 d63d 1414 b3bc
00000260: befe ec3d 3293 003e ff9b 96bd 0294 2dbe
00000270: 249f 86bd b3f5 03be 0253 c3bc fb13 1fbe
00000280: a563 b0bc 9499 7f3d 291d ef3d c7d3 dc3d
00000290: 6896 8f3d 3df9 25bd 02ca 69be e7f3 103e
000002a0: 2e4a ffbd 1a34 a3bd 5b37 113d 126f 84bd
000002b0: 1905 1abd 03fb a4bd 8688 32bd 341e d53d
000002c0: a338 023e a5e5 113e 3f3a 1bbe 55b1 d83d
000002d0: 8fa3 613c 233e a9bc 8d3c a8bd 4720 4bbe
000002e0: 8215 7abd 1525 a63d 96a1 0cbe 7a00 ddbd
000002f0: 373c 22be 47f4 2e3e 165a fabd c74a 19be
00000300: 6b0e 0a3d bfd9 293d a226 debd ccd0 da3b
00000310: 0406 3abe 84e2 10be 4029 b5bd ab27 bb3c
00000320: f849 5b3d 82a3 64be 9937 ccbc a742 de3c
00000330: 0a50 9abd 3140 3e3d 5df3 c3bd 718f e43b
00000340: 1b92 adbc bd73 84bd 50e9 de3d 1c65 0a3e
00000350: 5e54 c1bd 867a dfbd b29d 0ebe f76f d13d
00000360: 2d07 bbbb 3b1d 813d 88ba 79bd 9d5b d43d
00000370: 9f69 15be 72bc b13d 3695 1abe 32a3 a13d
00000380: 0ab4 60bc 1d64 5a3d f105 99bd 109c e9bc
00000390: 59d6 463d bb6f 3fbe 1c72 cb3d f270 153e
000003a0: 6098 f73c 4c7f 153e adb2 21be e3dd d3bd
000003b0: 33ad 263e cb1f 1cbe 4265 d7bd ac66 acbd
000003c0: bd00 4fbe b14a 7ebc 16e9 c33d aa4c ec3d
000003d0: 6195 16be e493 b53c 1126 183e 7e45 3f3d
000003e0: 1765 ebbc 0968 a33d c3e2 98bc dd87 23be
000003f0: feb3 fa3d f24c 9e3c f0d5 44bc f73b 613c

sequential/dense/BiasAdd/ReadVariableOp f4 [40]
0.16661464 -0.14801659 0.23404549 0.009456324 -0.0065425853 0.14358345 0.20622583 0.016023017
0.11340605 -0.29879698 0.059294716 -0.031460468 0.12696311 0.33674073 0.14502431 0.11934258
-0.108396955 -0.028067645 -0.1363645 0.19141233 -0.13133153 0.13671151 -0.07530971 -0.19956912
-0.22031654 0.15128545 -0.12318462 0.1704862 -0.043855302 -0.35657966 -0.22656877 -0.03781589
-0.12112871 -0.027555436 -0.018718965 -0.13274805 -0.13425866 -0.17529035 -0.07668126 -0.07108485
00000000: 079d 2a3e a991 17be 9fa9 6f3e b3ee 1a3c
00000010: 2f63 d6bb 8a07 133e dd2c 533e b442 833c
00000020: 6e41 e83d ebfb 98be 04df 723d b1dc 00bd
00000030: 9e02 023e 4869 ac3e 4181 143e e269 f43d
00000040: 39ff ddbd 1eee e5bc 23a3 0bbe 9801 443e
00000050: c67b 06be 1afe 0b3e fa3b 9abd d95b 4cbe
00000060: a99a 61be 93ea 1a3e 3848 fcbd ef93 2e3e
00000070: 9ea1 33bd 9c91 b6be a501 68be d6e4 1abd
00000080: 5412 f8bd f0bb e1bc 8458 99bc 1bef 07be
00000090: 1a7b 09be 507f 33be 100b 9dbd ef94 91bd

sequential/dense/MatMul f4 [40, 40]
-0.12640907 0.15334064 0.010339406 0.083147705 0.1548937 -0.0024588162 -0.102333665 -0.15649351
-0.22167261 0.020348579 0.10542329 -0.16882832 -0.35680756 0.11384635 0.005877802 -0.06771751
0.16095635 -0.17518283 0.116655655 0.17144059 -0.13937645 -0.36484218 -0.17023157 -0.096132934
-0.2983913 -0.15861799 -0.13691337 -0.25144306 -0.166429 0.15482481 0.06285498 -0.053205654
0.0809082 0.06768443 -0.0040695625 0.21769814 0.16665669 -0.0153545225 0.2672738 0.12493073
0.24295016 0.22177772 0.028085534 -0.21764155 0.07307505 0.04896314 -0.22317448 0.16332166
0.20262615 0.14097309 -0.3092022 0.1412348 0.17689404 -0.15763019 -0.06695977 0.10671935
0.006387174 0.09191016 0.089894205 -0.25829425 0.010056632 -0.05774911 -0.2861541 -0.28090665
-0.35008946 -0.26408622 0.19878684 -0.11711156 -0.12086489 -0.26770717 0.16085935 0.161466
-0.3747192 -0.23734975 -0.011056182 0.117281854 0.18205877 -0.22814822 0.13834785 0.04689883
-0.27138504 0.2475692 0.25777948 -0.091824844 -0.140183 0.18517305 -0.03932479 -0.020774676
-0.28241763 -0.0792241 0.20634522 0.16039364 -0.15861316 0.26732692 0.32528904 -0.32032612
0.13876261 -0.11637237 -0.15557316 0.12438835 0.010383531 -0.17654227 0.20748334 -0.08359767
0.09720729 0.15034218 0.03102126 0.10727942 -0.1594634 0.18507852 -0.17551345 -0.10134009
0.2666358 -0.20733896 -0.121681705 0.104065925 -0.08842839 0.17428175 0.13667381 -0.114882596
0.06764248 0.1715036 -0.2690347 0.1130254 -0.0543439 0.07933119 -0.11721982 -0.22101182
0.06098652 0.025479257 0.18325028 0.119789 -0.15874983 -0.16466627 0.20076007 -0.1196561
-0.2475338 -0.10008964 0.26140305 -0.115536645 -0.05952366 -0.14110364 0.22738765 -0.031083226
0.05005622 -0.12152134 -0.06470336 -0.18637668 -0.22115782 -0.18475227 -0.1804171 -0.016691208
0.021126376 0.2803765 -0.23837388 -0.19061042 -0.1297842 0.21508597 0.051809102 0.14808598
0.18832834 0.23740922 0.0682311 0.21197516 0.004884708 -0.26274493 -0.013904325 0.26979876
-0.12786378 -0.13418481 -0.05868466 -0.013610327 -0.15193406 0.003666547 -0.07215981 -0.08346011
0.03902781 0.017852306 -0.27881452 0.0015812413 -0.20036991 -0.12984622 -0.015855992 -0.11209104
-0.007777272 0.110025525 0.13414411 0.027912034 -0.12382616 -0.018048432 -0.14167768 0.008626144
-0.06417689 -0.13603792 0.12762372 0.17556697 0.053036775 -0.1318073 0.1774103 -0.25444263
-0.01178124 0.19152962 0.22440039 0.05666736 -0.12442537 -0.17638274 -0.0503189 -0.25178465
0.1784035 -0.032260735 -0.08382909 0.061970502 -0.10082301 0.15703797 -0.11871633 -0.056484032
-0.061770365 0.07913753 -0.08145169 -0.0106766615 0.1023109 0.05114637 -0.24265796 -0.20278528
-0.22400376 0.12101605 -0.17077191 0.13705882 -0.22995734 -0.12297915 0.00052976847 -0.1044896
-0.20644644 0.23554459 -0.024350384 0.04136344 -0.13856196 -0.1466719 0.21232009 -0.2552303
-0.06175882 -0.13559902 -0.19099048 -0.08652149 -0.004020448 0.0011293087 -0.078507625 -0.15186
-0.41956246 -0.071753055 0.10183778 0.065386534 -0.0758673 0.088959426 0.10995884 -0.33702397
00000000: 6171 01be 5405 1d3e 9d66 293c 5849 aa3d
00000010: 749c 1e3e 1724 21bb 5094 d1bd d63f 20be
00000020: 25fe 62be 10b2 a63c 2ae8 d73d 55e1 2cbe
00000030: 7baf b6be 4628 e93d 949a c03b 7aaf 8abd
00000040: bed1 243e 2163 33be 29e9 ee3d 1f8e 2f3e
00000050: b3b8 0ebe 98cc babe 2f51 2ebe 58e1 c4bd
00000060: bfc6 98be c16c 22be 0533 0cbe 25bd 80be
00000070: 5d6c 2abe 658a 1e3e 1dba 803d 2cee 59bd
00000080: 33b3 a53d 229e 8a3d f759 85bb 43ec 5e3e
00000090: 0da8 2a3e 8991 7bbc 1dd8 883e afdb ff3d
000000a0: edc7 783e b319 633e a213 e63c 6ddd 5ebe
000000b0: 5fa8 953d 938d 483d da87 64be cb3d 273e
000000c0: 3b7d 4f3e 405b 103e c04f 9ebe db9f 103e
000000d0: b623 353e cf69 21be 3422 89bd ad8f da3d
000000e0: 804b d13b 653b bc3d 741a b83d 253f 84be
000000f0: 92c4 243c 558a 6cbd ca82 92be ffd2 8fbe
00000100: ed3e b3be 4f36 87be c78e 4b3e 30d8 efbd
00000110: 0388 f7bd ea10 89be 50b8 243e 5857 253e
00000120: 32db bfbe d00b 73be fd24 35bc 7831 f03d
00000130: 9d6d 3a3e b09f 69be 0fab 0d3e fd18 403d
00000140: fbf2 8abe c882 7d3e acfb 833e aa0e bcbd
00000150: 228c 0fbe 019e 3d3e 0813 21bd a72f aabc
00000160: 0b99 90be 3f40 a2bd 294c 533e 3b3e 243e
00000170: 7d6b 22be 13df 883e 498c a63e c901 a4be
00000180: c917 0e3e a354 eebd 924e 1fbe 52bf fe3d
00000190: b01f 2a3c 7fc7 34be 8376 543e 4135 abbd
000001a0: 9e14 c73d 4df3 193e 4c20 fe3c 50b5 db3d
000001b0: 604a 23be 3985 3d3e ccb9 33be 658b cfbd
000001c0: 7d84 883e aa50 54be 4234 f9bd 8420 d53d
000001d0: f219 b5bd ea76 323e 38f4 0b3e 9147 ebbd
000001e0: 2488 8a3d a49e 2f3e ebbe 89be dc79 e73d
000001f0: b697 5ebd 6478 a23d f210 f0bd ec50 62be
00000200: 00cd 793d e0b9 d03c f6a5 3b3e ef53 f53d
00000210: 518f 22be 469e 28be 0c94 4d3e 420e f5bd
00000220: 8079 7dbe ccfb ccbd 9fd6 853e 7a9e ecbd
00000230: 15cf 73bd 797d 10be 4fd8 683e 40a2 febc
00000240: c007 4d3d 2ee0 f8bd 3283 84bd 87d9 3ebe
00000250: 3277 62be b32f 3dbe 43bf 38be 00bc 88bc
00000260: 3911 ad3c 828d 8f3e 4818 74be 612f 43be
00000270: 26e6 04be 7f3f 5c3e c835 543d daa3 173e
00000280: 25d9 403e 671b 733e bfbc 8b3d 0410 593e
00000290: e70f a03b 8186 86be f7ce 63bc 1023 8a3e
000002a0: b9ee 02be be67 09be 535f 70bd d9fd 5ebc
000002b0: 9a94 1bbe 734a 703b 86c8 93bd 22ed aabd
000002c0: a0db 1f3d 003f 923c c7c0 8ebe a741 cf3a
000002d0: c52d 4dbe 68f6 04be 6de4 81bc fd8f e5bd
000002e0: 7cd8 febb 1055 e13d 135d 093e c7a7 e43c
000002f0: 9298 fdbd 4eda 93bc f413 11be ac54 0d3c
00000300: 2c6f 83bd 864d 0bbe cbaf 023e d4c7 333e
00000310: 173d 593d 7ef8 06be 0cab 353e 4e46 82be
00000320: 1a06 41bc 5720 443e 37c9 653e 091c 683d
00000330: bad2 febd ad9d 34be 311b 4ebd ebe9 80be
00000340: 68af 363e d523 04bd 96ae abbd c8d4 7d3d
00000350: 4b7c cebd 90ce 203e 8c21 f3bd cd5b 67bd
00000360: ec02 7dbd db12 a23d 25d0 a6bd 2aed 2ebc
00000370: 6188 d13d db7e 513d 547b 78be f2a6 4fbe
00000380: 3e61 65be 43d7 f73d d5de 2ebe 2659 0c3e
00000390: f079 6bbe 7edc fbbd 29e0 0a3a a5fe d5bd
000003a0: b266 53be 9a32 713e 757a c7bc b66c 293d
000003b0: 30e3 0dbe 2931 16be 706a 593e 8cad 82be
000003c0: d1f6 7cbd 78da 0abe 0293 43be 2e32 b1bd
000003d0: f6bd 83bb 5005 943a 9bc8 a0bd 3081 1bbe
000003e0: e4d0 d6be 44f3 92bd 5390 d03d 60e9 853d
000003f0: 5160 9bbd 5c30 b63d 1a32 e13d 688e acbe
