ModelThuNghiem/Model9/model.tflite (tflite, 38424 bytes, 7 tensors)

sequential_2/conv1d_4/BiasAdd/ReadVariableOp f4 [64]
00000000: 2761 c13d 27d5 003d b571 1fbd 5806 38bd
00000010: ae3d 85bb 73e3 033e 893f 82bc f15b d9bd
00000020: 4bc9 e73a cb48 ebbd 74c5 113d ea90 e43d
00000030: e010 f43c 2467 bfbd f8f4 b1bd 382e e3bb
00000040: 2331 c4bd 62bf 4ebd c4e5 53bd 9bed 3dbd
00000050: a1f1 06bd d17f 87bc 6d9b c2bd 5715 0bbd
00000060: 47d4 1bbd 51f6 673d d47b ecbb 8725 2fbc
00000070: e251 d4bd cb2c 71bd b945 0b3d 127f 773d
00000080: 4eb0 31bd 0717 2ebd 1ecd 08bd 4d8f 85bd
00000090: 922e f13c 32eb 033d d27b 60bd 08f0 1d3c
000000a0: 12b1 94bd 734a fabc 6584 c6bb 715f dabd
000000b0: 5fa1 c7bc ea29 ccbd 2788 93bc bfdd 943c
000000c0: a672 e13d 24c2 a2bd 1aae a8bc 6398 e1bd
000000d0: 62c8 f9bd 904f 0ebd dcef 81bd 24cd 64bd
000000e0: 687b debd 12f0 b13d 8dc3 87bc 0d42 c7bd
000000f0: c0b3 f23c 41e5 0fbd bc02 aabd 2fab efbc
0.094423585 0.031453278 -0.0389268 -0.044927925 -0.0040661907 0.12879734 -0.015899437 -0.106132396
0.0017683891 -0.114884935 0.035588697 0.11160453 0.029793203 -0.093458444 -0.08689302 -0.006933
-0.095796846 -0.050475486 -0.051732793 -0.046369176 -0.03294528 -0.01654044 -0.09502301 -0.033955898
-0.03804424 0.05663139 -0.00721691 -0.0106901 -0.103671804 -0.05888061 0.03400204 0.060423918
-0.043381028 -0.04250243 -0.03339874 -0.06521473 0.029441152 0.03220672 -0.054805584 0.009639747
-0.07260336 -0.030553078 -0.006058263 -0.10662735 -0.02436894 -0.09968932 -0.018009258 0.018172143
0.110081956 -0.07947186 -0.02059083 -0.110153936 -0.12196423 -0.034743845 -0.06344578 -0.0558597
-0.108633816 0.08688368 -0.016572738 -0.09729395 0.029626727 -0.035130743 -0.08301303 -0.029256431

sequential_2/conv1d_5/BiasAdd/ReadVariableOp f4 [40]
00000000: 4e5a e1bc 5b38 5abd d3ac 85bc f825 6c3b
00000010: 48a3 083d 4c3a 74bd f879 bf3d 6bdc 13bd
00000020: d581 acbd ef72 fa3d b197 6cbd de74 4ebd
00000030: a9f5 5abd af23 fdbc 9295 e73c 8304 7bbd
00000040: 7752 5abd a019 96bd 0a74 fa3d 97e2 4cbd
00000050: 1ecb 1dbd dc2b bfbc dfdb 633d e154 f0bb
00000060: fa4a da3d c77a aebc afb0 bdbb 42f6 08bd
00000070: 81cf 3ebb 1928 b03d 7f25 38bc d539 21bc
00000080: 9433 f5bb fa92 05bd 547c afbd 57b3 89bd
00000090: 1d94 9c3d 425e 4abd f63b dcba e51e c3bd
-0.027508881 -0.0532764 -0.01631776 0.0036033373 0.033358842 -0.05962591 0.093494356 -0.03609888
-0.08423201 0.12228953 -0.05776185 -0.050404422 -0.053456936 -0.030900804 0.028269563 -0.0612836
-0.0533013 -0.07329106 0.12229164 -0.05002078 -0.038523786 -0.023336343 0.055629607 -0.007334337
0.10658832 -0.02129878 -0.0057888846 -0.033437975 -0.0029115381 0.08601398 -0.0112394085 -0.009840448
-0.007482955 -0.03261087 -0.085686356 -0.067236595 0.07645438 -0.049406298 -0.0016802538 -0.09527377

sequential_2/batch_normalization_3/batchnorm/mul_1;sequential_2/batch_normalization_3/batchnorm/add_1;sequential_2/dense_5/MatMul;sequential_2/dense_5/BiasAdd f4 [1, 40]
00000000: 0f9d 6340 4a4c 113d 73a6 0ebd 5661 1c3e
00000010: a1fb 92bc c538 bebf 0f9d e4bc 66aa 0f3d
00000020: dde7 3541 206a 68bc b8ac 5d3c a783 00c0
00000030: de6b da3c 6fc6 dc3c aff3 09bd 0513 32bd
00000040: 2004 0fbd bb5a 083d e5ca 2941 873d 3e40
00000050: 20d9 1f3d 68da aec0 d5f6 2bbd 3be0 9340
00000060: 7727 4f3c 4c59 6641 42e9 053d 1474 7141
00000070: 84b5 ec3c e801 243d 48c1 2abd da0f 34bd
00000080: 9d69 3dc1 96ee 6fbd 4289 ecbe 52ce 0b3d
00000090: fdff 443d 5c56 06c1 7251 ad3c 3e07 b441
3.556461 0.035473146 -0.034826707 0.15271506 -0.017942252 -1.4861075 -0.027906923 0.035074614
11.369107 -0.014185458 0.013529949 -2.0080354 0.026662763 0.02695009 -0.03367966 -0.04347517
-0.034916043 0.033289652 10.612035 2.9725053 0.039025426 -5.464161 -0.041983444 4.621122
0.0126436865 14.396801 0.032693155 15.090839 0.028895147 0.04004088 -0.041688234 -0.04396043
-11.8382845 -0.058577143 -0.4619847 0.03413231 0.048095692 -8.396084 0.021157 22.503536

sequential_2/conv1d_4/Conv1D f4 [64, 1, 2, 12]
00000000: a868 77be 67f7 0cbe 227f d13d ea33 583e
00000010: 0f7c 25be 6b86 333d a6b5 f5bd 783e 263d
00000020: 621e 37be e105 01bd 210d 913d de3c b0bd
00000030: 5bad 49be cb1e 36be 737c 013e d321 983e
00000040: 9e9d da3c a466 d5bd d5ca ad3d 55d0 8ebc
00000050: 642c e23d 9026 a13e 7060 5bbe 1540 633e
00000060: bee7 6abd 58e5 95be a5e0 4fbd 4ca5 dd3d
00000070: c365 8abc e6b6 d83d f1e5 6fbd 4a33 833d
00000080: 31bd f63c 629d 0e3e 22e1 393e 10b2 4abe
00000090: 13be 2fbe 5497 55be 8431 7ebe 884c 93bd
000000a0: 40f8 18be 79dc a8bc 599b b3bd a54d e03c
000000b0: 9cf0 493e 3560 6d3d aace c6bd 705e a4bb
000000c0: e27f 523e 5f20 89bb b2e8 44bd 355b b4bd
000000d0: c1e8 463e e71d e6bd 965a c9bb 4568 95bd
000000e0: df26 493e 3d6d 50bd e92d 0f3e 9258 90be
000000f0: 6cba 73be c668 193e 27da 863e 2a09 193d
00000100: ac52 08bb 0ed7 18be 7e3c a93c e08c 6c3e
00000110: 3410 16be 204a d0bd ad9d 45be f03e a23d
00000120: 6c22 83bd 5ae0 cfbd e026 f1bd f316 6fbd
00000130: 2964 4f3e 6393 dfbd 5f74 643d 1ed0 323e
00000140: c919 1a3e 4940 d13c 9aaa cf3d 146a 903c
00000150: c7a0 24be 0960 883d 97dd 163e dea2 4abe
00000160: 9b54 02be da08 8e3c 0d81 723c f6ab 2abc
00000170: 02ca afbd bf9e 05be f61d 33bd 3f9c 47bd
00000180: 9127 2e3e eb52 f8bc a7e9 273e d28a 4b3e
00000190: c158 f2bc ab64 27be 9534 fcbd 60e1 96bc
000001a0: 3e60 263e a57f 633e e003 62bc 87e6 39be
000001b0: 183c 5dbe 7db2 103e 4d18 423e e5b3 593e
000001c0: 19be 1e3d e0b6 7b3e 7035 0e3e 141d fa3c
000001d0: 65cf b5bd 5bf2 5dbc 71f8 253d 2b11 eb3c
000001e0: 0925 733d 15ce 83be a038 e1bd cf58 483e
000001f0: ae6c 8cbd 93ed 28be 96b7 723e 5602 223a
00000200: 7736 63be e5d1 dbbd b39f bf3d 90bf 1dbd
00000210: 7e80 c3bd 53ed 85be 7e5d 7cbe 1b40 2dbe
00000220: 501e 05be 8751 14bc 48cb 37be 6b86 a3bd
00000230: cfd5 0fbd ca4f 003e 1e31 9c3d c55f 103e
00000240: a92b 88bc 7eec 50be cc90 93be b053 c5bc
00000250: 879d 2e3e 4195 61bd e736 693d e003 f63d
00000260: 39a4 eb3d 57e4 2e3d f346 8bbd 423e 923c
00000270: 9641 423e 47fc 7cbe b1c2 35be 54c4 17bd
00000280: e3ba 063e db7b 763d b62f 88be a415 50be
00000290: 6eb3 083e 47bb d4bd ef56 273e 33ee 733e
000002a0: 28d9 523d 4b44 65bd 24fe 2dbe d207 26be
000002b0: 423e 00be d201 6dbd 28c8 16be c8f4 9b3d
000002c0: c153 9bbd 321c 14be 999b 22be 321e 06be
000002d0: 5a83 3e3c b020 fb3d 8502 733e d507 03be
000002e0: 644c 943d 5c5c 793e 3d55 0f3d 68a1 573e
000002f0: dffd fa3d eb68 0b3e 5ccc 36be 8cfa 5abe
00000300: 5e1a 833d 094e a7bd e8de 2ebe 59c4 6fbb
00000310: eef3 833d 9de9 bf3d 5c17 3cbc a382 65be
00000320: 4d33 abb9 a2e3 86bd 98d2 f43d 71ef 97be
00000330: 075a b4be d982 03be 88a8 843d 7219 0bbd
00000340: 782b b13c ef2f 69bd 1a3c 07be 15be 0b3e
00000350: aabf 96bc fa5f 8d3d a1a5 66bd 8a2c b2bb
00000360: baa1 8e3e b7f1 e3bd 4799 063d 526a 2cbe
00000370: bc44 3abe 97ae 4bbe eff4 473e 897d 8d3c
00000380: 4858 293d 3b3a d03c 3cf8 423e 6214 a9bb
00000390: 2a97 223e 57e8 32be f269 8fbd a4c2 c6bd
000003a0: a829 2e3e 32d3 1b3e 4f7b 68be d9c7 e9bd
000003b0: 922c cc3d 7e48 ab3d eeee a2bd 04a2 70bd
000003c0: 2fe5 25be 4bb5 6dbe 53d5 31be 1a75 203e
000003d0: 5604 dd3c 4830 af3c e2b7 c1bd c3d9 2c3e
000003e0: 716b 143e 24b1 f2bd 8fd8 a8bd d406 debd
000003f0: d826 c7ba fbae b93d 43f2 67be 93ab f33d
-0.24161017 -0.13766252 0.10229327 0.21113554 -0.16160606 0.043829363 -0.11997537 0.04058692
-0.17882684 -0.031499747 0.07082582 -0.086053595 -0.19695036 -0.17785184 0.1264513 0.29713306
0.026686486 -0.10419968 0.08485953 -0.017433325 0.11043623 0.31474733 -0.21423507 0.22192414
-0.057349913 -0.29276538 -0.050751347 0.108225435 -0.016894227 0.1058176 -0.0585689 0.06406267
0.03011951 0.13927224 0.18152288 -0.19794488 -0.17162351 -0.20858508 -0.24823576 -0.071923316
-0.1493845 -0.020612942 -0.087698646 0.027380774 0.19720691 0.05795308 -0.09707387 -0.0050161406
0.20556596 -0.004184767 -0.048073478 -0.08806459 0.19424726 -0.11236172 -0.006144832 -0.072952785
0.19643734 -0.050885428 0.13982357 -0.28192574 -0.23801583 0.14981374 0.26338312 0.037362255
-0.002080123 -0.14925787 0.020658728 0.23100615 -0.14654619 -0.10170388 -0.1929843 0.079221606
-0.0640305 -0.101502135 -0.11774993 -0.058371495 0.20253052 -0.10916784 0.055775043 0.17462203
0.15048899 0.025543349 0.101399615 0.017628707 -0.16076957 0.06658942 0.14732967 -0.19788691
-0.12727587 0.017338205 0.014801276 -0.010416975 -0.08583452 -0.13048838 -0.043729745 -0.048732992
0.17007281 -0.030312976 0.16397725 0.19877174 -0.029583337 -0.16346996 -0.12314717 -0.018418014
0.16247651 0.22216661 -0.013794869 -0.18154345 -0.21604955 0.14130588 0.18954583 0.2126003
0.03875551 0.2458148 0.13887572 0.030531444 -0.08877448 -0.013546552 0.040520135 0.02869471
0.05936149 -0.25743166 -0.109971285 0.19565128 -0.068566665 -0.16496877 0.23702845 0.00061801577
-0.22188745 -0.107333936 0.09356632 -0.038512766 -0.09545992 -0.26157627 -0.2464504 -0.16918986
-0.12999845 -0.009052641 -0.1794864 -0.079846226 -0.035116013 0.12530437 0.07626556 0.14099033
-0.016622381 -0.20402715 -0.2882141 -0.024087757 0.1705228 -0.05507398 0.056937125 0.12012458
0.11505932 0.04269823 -0.06800642 0.017851952 0.18970332 -0.24705611 -0.1775005 -0.037052467
0.13157229 0.06017671 -0.265989 -0.20320755 0.13349697 -0.10387283 0.16341756 0.23821335
0.051476628 -0.055973332 -0.16991478 -0.1621392 -0.1252375 -0.057863064 -0.14724791 0.07615048
-0.07584334 -0.1446388 -0.15879668 -0.13097456 0.011627996 0.12262094 0.2373143 -0.12795956
0.07241133 0.24351639 0.0349934 0.21057665 0.12255453 0.13614242 -0.17851394 -0.21384639
0.064015135 -0.08169181 -0.1707722 -0.0036585538 0.0644301 0.0937073 -0.011480179 -0.22413115
-0.00032653884 -0.06586386 0.1195423 -0.29674867 -0.35224935 -0.12842883 0.06477457 -0.033959813
0.021627173 -0.05693048 -0.1320652 0.1364673 -0.01840194 0.06903072 -0.0563103 -0.0054374384
0.27857763 -0.11130088 0.03286102 -0.16837433 -0.18190283 -0.1989082 0.19527029 0.017271774
0.041343957 0.025418391 0.19040006 -0.0051599005 0.15877977 -0.17471443 -0.07002629 -0.097050935
0.17008078 0.15217283 -0.22703288 -0.11415071 0.099694386 0.08363436 -0.079557285 -0.05874826
-0.16200708 -0.23213689 -0.17366533 0.1566967 0.026979607 0.021385327 -0.09458901 0.16879945
0.1449411 -0.11850193 -0.0824443 -0.10841146 -0.0015194071 0.09066578 -0.2265101 0.118979596

sequential_2/conv1d_5/Conv1D f4 [40, 1, 2, 64]
00000000: a3ba f8bd 6625 79be c81f 263e 4628 233e
00000010: e565 473d 4f97 0fbe 555b d13d 80ff 81bd
00000020: 352e f83d 403b 2b3e 7cdf 343d cdc8 d13b
00000030: 5aaf f9bc b47a 2ebd 2130 91bd 3f49 113d
00000040: ed36 cabd a3c8 c9bc 1a7d 443e 2fed b03d
00000050: d273 10bd ad92 a9bd 1bbe 2c3d 481e e9bd
00000060: 4ca2 bb3d 2335 9ebc cf99 3bbe 67bc 06be
00000070: 9f15 393c 288e 90bd 6842 ecbd b78c 8dbb
00000080: 391a 6ebe e16f 66bd 4362 fcbd 3534 e93d
00000090: 4365 893d a707 833d a890 03be ca03 39be
000000a0: cd10 d4bd 6d55 c6bd 7304 683e 9367 c7bc
000000b0: 1bbf ca3d cd23 0dbc 40c4 c3bd c6c1 e13d
000000c0: 14d5 163e 0372 b33d 724d 253e 7668 a7bd
000000d0: d78f c1bd 4241 e23d 1b0f 103e 0e2c db3c
000000e0: df5b ef3d b13b 25ba f059 0e3e 574b 3a3d
000000f0: f52a a63d c843 903c 8968 68bc 58c4 1b3e
00000100: 50de 71bd 6353 863e 100a 373d 673b 2ebd
00000110: 7479 11bd b0c2 07be 1b84 23be 39e9 71bd
00000120: ff6b 3fbc 9b26 11bd edf9 3c3e 3f4c 65be
00000130: 8bf6 31be 65de ef3d f343 57be b587 ad3b
00000140: 2500 c6bd 1959 abbc 21e0 4d3d edea 83bc
00000150: 89cb e8bd 4cbe 22be 1d80 e5bd c340 da3d
00000160: 5755 b23d f13a c83d 6f49 36be fdf9 4f3d
00000170: 5b62 ac3d d670 3abe 84dd 083b cb91 0abc
00000180: 94eb 2bbe f570 aebd 9719 10be 84f6 30be
00000190: abc9 313e de49 10bc 148a 133d c301 7cbe
000001a0: 1790 b93c 15a0 8ebd 6a8c 2dbe 3ad9 32be
000001b0: 66d6 833a b366 0a3e 17c5 84bd 9ab0 833d
000001c0: 5f4b 4fbd 75f1 3b3c f820 033e fd9d 27be
000001d0: 0514 35be 0c82 87bd 1e00 49bd 4d6e a23b
000001e0: b28e 50be 231f 773d 5387 e4bd 23cc 683d
000001f0: 3700 e83a 1aa6 ce3d 5de0 b7bd 3460 8f3c
00000200: 164c 14bd b818 dc3d 76de 143e ac24 14be
00000210: 9a7a 373e 8ebe 36be ba87 10be 8ba4 fb3d
00000220: c22a 6c3e 93ec 393d 4590 dc3c d275 00be
00000230: 81da 453e a09b 17be 44a5 263c 588b f9bd
00000240: 27e8 e63c 5661 bb3d 8ae5 08be a936 003e
00000250: 4c67 043d 4d4d 4c3d 60d4 3fbe 40ba 24bd
00000260: 2bc5 b4bb 490f 43be 69b0 423b 2494 cebd
00000270: 91a9 42be 9bc4 cb3d fda6 423d 3b98 983d
00000280: ca40 0b3e 152a 1bbe 52a6 55be 18ae fe3c
00000290: d49f e53c fb6a 893e 8b8e c3bd bcfe c73c
000002a0: ab40 ff3d 4845 a8bd 821c d33b 9f65 2ebe
000002b0: 8066 013e 6023 1cbc eb32 1a3e c627 02bc
000002c0: 00c3 0fbe 66cd c73d 5250 ddbc 66ce 4abe
000002d0: 808b f6bb afe5 a0bb 279c 8f3d 9045 303d
000002e0: 5f50 d93d 7106 9dbb e1d5 d63c 33f0 eb3d
000002f0: 7fb6 24be 11ee 06be fe92 acbd 9481 bdba
00000300: 8bf5 d33d 7378 ecbd 5961 6ebe ed75 a3bd
00000310: d81f 01be f765 f4bd 3c15 dabd fefb 53be
00000320: 76c3 08be eab8 42be 7c07 8abd 9bed 7bbd
00000330: 03e5 3d3e 001b 8b3d 270a 803d 8599 903b
00000340: 0db9 b83d 80e1 83bc 53cd 49bd b490 a0bd
00000350: 6835 6bbe 8a4f 783d 5898 29be bdf7 cdbd
00000360: 9741 3cbe 7109 febd 6193 eb3c 4439 353e
00000370: 1108 0cbd 1e23 983c 70ed 91bc 7a98 9abc
00000380: 2455 0d3d 6725 dbbd acd5 16be 31ea 2abe
00000390: 3edd 29be 21ec 003e 8834 61be 14a0 223c
000003a0: 37a2 873c 1fe7 243e febb 103e 63bf 0a3d
000003b0: 8edb acbd 795e c8bb 82c1 c13d a24c 77bd
000003c0: d258 50be ca13 1b3e 9efd 7bbd cdbe 48bd
000003d0: 446c f23d 0a8d 203e 49ed 783d d344 6ebd
000003e0: 664f 2a3d cc16 1abd 9960 6d3d 5f03 f9bd
000003f0: 208b 263e 370e 4abe 3159 3e3d 9343 49bd
-0.12144973 -0.24330673 0.16223061 0.15933332 0.04868116 -0.14022563 0.10222498 -0.06347561
0.12118188 0.16721821 0.044158444 0.006402111 -0.030479122 -0.042597488 -0.07089258 0.035470244
-0.098737575 -0.024631804 0.19188347 0.08638989 -0.035266705 -0.08279929 0.042173486 -0.11382729
0.09161815 -0.019312447 -0.18320392 -0.13157807 0.011296659 -0.07058364 -0.115361035 -0.004319753
-0.2325219 -0.05625904 -0.123234294 0.11386911 0.06708767 0.06397944 -0.1284815 -0.18067852
-0.10354767 -0.096842624 0.22657947 -0.02434138 0.09899732 -0.008614493 -0.09558916 0.110232875
0.1472972 0.087619804 0.16142824 -0.08174221 -0.094512634 0.11047603 0.14068262 0.026754405
0.11687445 -0.0006303145 0.13901496 0.045482006 0.08113662 0.017610446 -0.014185079 0.15211618
-0.059049904 0.26235494 0.04468733 -0.04253712 -0.035516217 -0.13257861 -0.15968363 -0.05906031
-0.011683463 -0.035437208 0.18454714 -0.22392367 -0.17379205 0.1171234 -0.21022014 0.0052957186
-0.09667996 -0.020916509 0.050262574 -0.016103232 -0.11366946 -0.15892905 -0.11206076 0.106568836
0.087076835 0.09776867 -0.1780145 0.050775517 0.08417197 -0.18207106 0.0020883987 -0.008457611
-0.16789085 -0.085176386 -0.14072262 -0.17281538 0.17362086 -0.008806674 0.036020353 -0.24610047
0.022651715 -0.06964127 -0.16948095 -0.17465678 0.0010058403 0.13515739 -0.064829044 0.064301684
-0.05060899 0.011471142 0.12805545 -0.16368861 -0.17683418 -0.06616601 -0.049072377 0.0049569965
-0.20366934 0.06033243 -0.111586235 0.056835305 0.0017700259 0.10090275 -0.08978341 0.017501928
-0.036205374 0.10746902 0.14537987 -0.14467114 0.17917863 -0.17846128 -0.14114276 0.122872435
0.23063186 0.04539163 0.026924262 -0.12544945 0.19321634 -0.1480546 0.010171238 -0.12184781
0.02818687 0.09149425 -0.13368812 0.12520851 0.032325074 0.049878407 -0.18733358 -0.040216684
-0.0055166683 -0.190488 0.00297072 -0.10086849 -0.19009997 0.09949609 0.047522534 0.07450911
0.13598934 -0.15152772 -0.20864227 0.031088874 0.028030314 0.26839432 -0.09548672 0.024413459
0.12463506 -0.08216339 0.0064426074 -0.17030953 0.12636757 -0.009529918 0.15058486 -0.007944053
-0.1403923 0.097559735 -0.027015839 -0.19805297 -0.007523954 -0.004910193 0.070122056 0.04303509
0.10611033 -0.0047920276 0.026225032 0.11520424 -0.16085242 -0.13176753 -0.08426474 -0.0014458173
0.10349568 -0.11546411 -0.23279323 -0.07981477 -0.12609804 -0.11933511 -0.106485814 -0.20701596
-0.13355812 -0.19015852 -0.06739709 -0.061505895 0.18544392 0.06792259 0.062519364 0.004412832
0.09019671 -0.016098738 -0.049268078 -0.078401 -0.22969592 0.06062273 -0.16562021 -0.10057018
-0.18384396 -0.124041446 0.0287568 0.17697626 -0.03418738 0.018571433 -0.017813414 -0.018871535
0.034505025 -0.10700493 -0.14729947 -0.166909 -0.16588303 0.12590076 -0.21992695 0.009925861
0.016556842 0.1610379 0.14134213 0.033873927 -0.08440314 -0.0061147776 0.09460737 -0.060375817
-0.20346382 0.15144268 -0.061521165 -0.049010087 0.11837056 0.15678802 0.060773168 -0.058171105
0.041579627 -0.037619397 0.05795345 -0.12158846 0.1626401 -0.19731985 0.04647178 -0.04913671

sequential_2/dense_4/BiasAdd/ReadVariableOp f4 [40]
00000000: 6bf3 1bbe 3b93 42be 2054 513e ffb3 2fbd
00000010: 945a 123e fcd9 213d 6e5e 213e e708 57be
00000020: 0644 b9bd ce5a 9a3d 3e87 dabc 4cdd 093e
00000030: 30ca 11be 4886 6cbe 17f4 083d f1b5 a43d
00000040: 8590 143d 52b7 3dbe 91f3 e6bc d2ac 73bd
00000050: 454f 33be 8a66 12bd 492c 1e3e c33e d2bc
00000060: fb99 a7bc 97c5 e0bd 3c84 a0bd d761 8bbc
00000070: 5e48 1abe b9e5 67bd 695f 163e fbef 9a3e
00000080: f208 23bc 6497 653d 84c7 81bd ce3d 83be
00000090: 7af0 c0bd 2e54 863e f9b4 8ebd 197f a6be
-0.15229575 -0.19001476 0.20442247 -0.042896267 0.14292365 0.039514527 0.15758678 -0.2099949
-0.090461776 0.07536851 -0.026675817 0.13463324 -0.14237285 -0.23098099 0.033435907 0.08042515
0.036270637 -0.18526962 -0.028192313 -0.059490986 -0.17510708 -0.03574232 0.15446581 -0.025664693
-0.020459166 -0.10975187 -0.07837722 -0.017014427 -0.15066668 -0.056615565 0.14684834 0.30261216
-0.009950863 0.05605258 -0.06336883 -0.2563309 -0.09420867 0.262361 -0.069681115 -0.32518843

sequential_2/dense_4/MatMul f4 [40, 40]
00000000: cce2 093e bc52 3f3e bee4 4b3c 4dbc b9bd
00000010: d263 383d f6af 833e a51b 5cbe 36dd 64be
00000020: a3d6 d13d 40a1 d43d 2807 26be 39d5 7abd
00000030: aedb 7c3e 84c6 4e3d 4c31 a7be d387 143e
00000040: 89db 783e a6fa 88be 0ca6 b0be 16d0 15bd
00000050: dd4d acbe b54d 9237 6404 62be 540f 2fbd
00000060: 2e51 2cbe 8bdb 393e 70bf 27bc 262c fcbc
00000070: f637 96be bd03 56be 48b6 d1be 019c bbbc
00000080: cdc8 35be 87c7 b0be 9858 963e 6271 293e
00000090: bca5 b63b 0616 e73d 5d12 983e fcf1 1fbd
000000a0: 1cb8 c83d 85db e83d 00cc d6bd f13c fd3b
000000b0: c307 f13d 4d01 55bd ae1c 9fbe 676f 5bbe
000000c0: b281 eb3d 7fca d4bd a189 05be 90ee 2f3e
000000d0: b810 25bd d0aa 133c a04b 98be a142 f63d
000000e0: dc98 043e be09 52bd f870 653b cc20 dc3d
000000f0: 56b1 66bd 72e5 5b3e 3850 08be e546 71be
00000100: b069 17bd 705b 9fbb b961 1fbe b230 35be
00000110: 9995 96bc 711c ba3c 5ff0 dbbe 98cf b33e
00000120: d364 1c3e 5045 b7bd 79d6 f03d 81ac c73e
00000130: 838b c4bd fd5e a23e fb76 a73e 0154 79bd
00000140: 17a1 63be 24e3 82be 7e92 b8bb 366b d8be
00000150: d286 8ebd 507b bb3c 292f a13c 751f 323e
00000160: 6c54 3e3e eb62 a63d 7932 f63d e3a3 5a3d
00000170: 0e13 9f3e e5d2 173e 24f1 5e3d b7dd ecbb
00000180: 7ffd cbbc 84a8 55bd 8f81 5c3d b59a 86be
00000190: a7c6 3e3d 68e9 a9bc cd10 5a3e 377a 2a3c
000001a0: 0ae7 443e cbd9 b1bd 42dc 3bbe 4224 56be
000001b0: aff0 7abd 6d47 0b3e a268 e53e 435d 82be
000001c0: 7868 aabd 208c 653e 9430 1c3e f981 a6bc
000001d0: 10e2 9b3e 089d 73bd d80d c2bd 7805 99bb
000001e0: 161b 49be ff97 dc3d 24b5 6abe 51d6 dd3d
000001f0: fdcd a9bb 0278 23be 1aba 06be 2d67 4dbe
00000200: 1c43 03be fc14 b43d 84ba efbd 431c 553e
00000210: c0a5 82be 87ad 6bbe a8e3 583e 456e 063e
00000220: 26a7 a0be aa8f d9bd 62d0 033d dd13 86be
00000230: 60e6 9a3e 7d6b 663e d801 913e 5b0c 0d3e
00000240: f8a7 b3bb e31e 04be f0cb e8bc 9edd dd3d
00000250: 4675 523e 1d1f b9be ad54 8e3d 6e1d 3dbe
00000260: 703a e5bd 73b6 c5bd df46 e3bd 4d71 ec3c
00000270: 6dbb 5bbe bb9c 2dbe 72e5 393e e091 5cbe
00000280: 1596 a83d 6273 16be c653 67be 30ad adbd
00000290: 94e0 743e 3224 18be d0e2 c53d 8baf 223d
000002a0: 6274 e33d a92f 963d ed32 2c3e 26a0 053d
000002b0: 295e 583e da1b 21be c34d 2cbe 0d93 4d3e
000002c0: a6ad 5ebe 2051 c6bc 2828 a13e 344f 4e3d
000002d0: f42a 5a3e 5722 3bbd 1f5f a13d a90c 963e
000002e0: baae 34bc 3947 933e 0bec 303e 8da9 823e
000002f0: ae1e d03d 8f1d 363e 7ffe 8b3e 0834 14be
00000300: 38f9 7cbe 7287 bcbd f61f ad3d 9d83 fabd
00000310: 1b25 353e 3e6a 86be 88c3 ddbb bcd8 7c3d
00000320: 604e 5abe 800f d8bd ee49 333e 1251 a7ba
00000330: ead6 73be 36ed 153e 5f87 c13d 6957 c1bd
00000340: 3884 513e b05b d13d 824b bfbd b1d6 863c
00000350: a3c1 043e b718 1bbe dff0 03be 3451 96be
00000360: 4acc 323d d7e5 acbd 0397 633e aaac 00be
00000370: dc6a 7c3e 703f 2fbd 3e2e adbc 5ceb b2bd
00000380: 38eb b33d eeae 393d a6de 9abd 774c fc3c
00000390: b224 89be ab46 b3bc 106d 513e 327f 16be
000003a0: 4a77 edbd 49b4 263c 72fa 3bbe 4b1a 86be
000003b0: 475e 4a3d 4928 65be 546d b2be 8d78 ae3c
000003c0: ac02 adbe 91f3 3fba 875c 4d3e 3b97 87be
000003d0: d00c 89bd 1bde 5f3e 7188 053e b9c4 f93d
000003e0: 8530 85be 97a7 d3bd e927 933e fe4c 603d
000003f0: 4374 ac3b 633e 4bbe ed64 023e c69d 11be
0.13465422 0.18683904 0.012444673 -0.09069119 0.04501707 0.25720185 -0.2149492 -0.2235001
0.10246017 0.103823185 -0.16213667 -0.0612385 0.24693176 0.050482288 -0.32654798 0.14504938
0.24302496 -0.2675373 -0.34501684 -0.0365754 -0.33653155 1.7440741e-05 -0.22071987 -0.042739227
-0.16827843 0.18150155 -0.010238513 -0.03078277 -0.2933957 -0.20899864 -0.40959382 -0.022901537
-0.1775238 -0.34527227 0.29364467 0.16547158 0.0055739563 0.112834975 0.2970151 -0.039049134
0.09800741 0.11369995 -0.10488129 0.007728212 0.117690586 -0.052003194 -0.31076568 -0.21429215
0.11499347 -0.103901856 -0.13040783 0.17180848 -0.040299147 0.009012893 -0.29745197 0.12024427
0.12948936 -0.051278822 0.0035009962 0.10748443 -0.056321464 0.21474245 -0.13311851 -0.235622
-0.036966026 -0.004863195 -0.15564622 -0.17694357 -0.01838188 0.02271864 -0.42956826 0.3511932
0.15272836 -0.08948767 0.117596574 0.38998798 -0.09596922 0.31713095 0.32707962 -0.060871128
-0.2222942 -0.2556392 -0.0056326976 -0.42269295 -0.06959309 0.022885948 0.019675808 0.17394812
0.18586892 0.08124336 0.12021346 0.05337895 0.31069225 0.14826544 0.05442919 -0.007228579
-0.02490115 -0.052162662 0.053834494 -0.26289907 0.04657617 -0.02074118 0.21295471 0.010405115
0.1922876 -0.08684119 -0.1834574 -0.20912269 -0.06126469 0.13601466 0.4480639 -0.25461778
-0.08320707 0.22416735 0.15252906 -0.020325648 0.3044591 -0.05947593 -0.09475297 -0.0046698414
-0.19639239 0.107711785 -0.22920662 0.10831893 -0.0051820264 -0.15963748 -0.1315693 -0.2005889
-0.12818569 0.08793065 -0.11705497 0.20811562 -0.25517082 -0.23015414 0.21180594 0.13128002
-0.31377524 -0.10623105 0.03218115 -0.2618703 0.30253887 0.22501941 0.2832172 0.13774244
-0.00548267 -0.12902407 -0.028417557 0.10833286 0.20552549 -0.3615655 0.069497444 -0.18468258
-0.11192787 -0.0965394 -0.11097502 0.02886262 -0.21458216 -0.16954319 0.18153933 -0.21540022
0.08231751 -0.14692453 -0.22590551 -0.084802985 0.23913795 -0.14857557 0.09662402 0.039718192
0.11106183 0.07333309 0.16816302 0.032623433 0.21129669 -0.15733281 -0.16826539 0.20075627
-0.21745929 -0.024208605 0.3147595 0.050368503 0.21305448 -0.045687046 0.07879471 0.29306534
-0.011027986 0.28765276 0.17277543 0.25519982 0.10162102 0.17784713 0.27342603 -0.14472973
-0.24704444 -0.09205522 0.08453362 -0.122321345 0.17689936 -0.2625293 -0.006767694 0.06173013
-0.2131896 -0.105498314 0.1750867 -0.001276525 -0.23812452 0.1464127 0.09449648 -0.094405
0.20460594 0.10222566 -0.09340574 0.016459795 0.12964492 -0.15146147 -0.12884854 -0.29358828
0.043651856 -0.08442276 0.22225575 -0.12565866 0.24650139 -0.042785108 -0.021140214 -0.087362975
0.08785099 0.04533284 -0.07561998 0.03079818 -0.2678581 -0.021884283 0.2045176 -0.14696959
-0.11595018 0.010174819 -0.18357256 -0.26191935 0.049406316 -0.22378649 -0.34849036 0.021297717
-0.337911 -0.0007322366 0.20054828 -0.26482567 -0.06691897 0.2186207 0.1304033 0.12195725
-0.2601358 -0.103346996 0.28741387 0.054760925 0.005262883 -0.19848017 0.12733813 -0.14220342
